models/trained_model.pt (torch, 440087 bytes, 6 tensors)

weight f4 [128, 784]
0	0xbc9d46b6	-0.019198757
1	0x3c451854	0.012029726
2	0x3c8a8942	0.016911153
3	0xbc22d808	-0.009939201
4	0x3cd4a874	0.025959231
5	0x3b6d979a	0.0036253692
6	0xbcd1a72c	-0.02559241
7	0xbcc99132	-0.024605367
8	0x3cb60a57	0.022221727
9	0x3c089cfe	0.008338211
10	0x3c6a5bb4	0.01430409
11	0xbd136039	-0.035980437
12	0x3ce83e50	0.028350025
13	0xbc552383	-0.013008955
14	0x3cd36cae	0.025808658
15	0x3ccbd43c	0.024881475
16	0x3ccbc198	0.024872586
17	0x3c873c56	0.016508263
18	0xbd100c8a	-0.03516821
19	0x3b864f96	0.004098843
20	0x3cd52a45	0.026021132
21	0xbcf92074	-0.030410983
22	0xbbdb60d2	-0.0066948915
23	0x3c6db6b2	0.01450889
24	0xbc4195cc	-0.0118154995
25	0x3ce41e68	0.02784653
26	0xbc84ca79	-0.016209828
27	0xbcca9368	-0.024728492
28	0x3cbf90fe	0.023384567
29	0xba455005	-0.00075268775
30	0x3aa254c7	0.0012384885
31	0xbca81068	-0.020515636
32	0xbbab11d3	-0.0052206307
33	0xbc8c55f6	-0.017130833
34	0x3ce772ed	0.028253043
35	0xbc266125	-0.010154997
36	0xbd12ef51	-0.03587276
37	0x3bb0f95a	0.005400819
38	0x3c6a6fa3	0.014308843
39	0xbd18cbf6	-0.037303887
40	0xbc3ce392	-0.011528866
41	0xbcb59988	-0.022167936
42	0xbc0bf314	-0.008541841
43	0xbca90499	-0.020632075
44	0xbca44b25	-0.020055363
45	0x3d12355e	0.035695426
46	0xbd17cce9	-0.037060652
47	0xbae93ebd	-0.0017795187
48	0xbc5f1457	-0.013615689
49	0x3d06711a	0.032822706
50	0x3c399e7d	0.01132929
51	0x3c8b9dc7	0.017043008
52	0xbc9cf501	-0.019159796
53	0x3c6b074c	0.014345001
54	0x3c1bac34	0.009501506
55	0x3d038d43	0.03211714
56	0x3c6a0806	0.0142841395
57	0xbc8f5066	-0.017494392
58	0xbb78e8c4	-0.0037980536
59	0xbcf3c6c2	-0.029757861
60	0x3bb94be7	0.0056548
61	0x3c8aeece	0.016959574
62	0xbce252f0	-0.027627438
63	0xbd11af55	-0.0355676
64	0xbd08c78e	-0.033393435
65	0x3c8ea0f9	0.017410742
66	0xbc46eae8	-0.012140967
67	0xbc982979	-0.018574463
68	0x3a60b232	0.0008571475
69	0xbcc4e668	-0.024035648
70	0x3cab8453	0.02093712
71	0xbccb7bfd	-0.024839396
72	0xbbfe5fd2	-0.0077628875
73	0x3b9af8ae	0.004729352
74	0xbcb6f3c0	-0.022333026
75	0xbb975897	-0.004618715
76	0xbbe41fdf	-0.006961807
77	0xbcab2f4c	-0.020896576
78	0xbd105998	-0.035241693
79	0xbc5f767a	-0.013639087
80	0xbcb906be	-0.022586223
81	0x3cb14279	0.021638142
82	0x3c4c6014	0.012474079
83	0x3cc1a1f4	0.023636796
84	0x3b2c0f08	0.0026254077
85	0x3c11e756	0.008905252
86	0x3d03772b	0.03209607
87	0xbcc7b188	-0.024376646
88	0xbd01c6a8	-0.031683594
89	0xbb9b4829	-0.004738827
90	0x3ca1cbc2	0.01975048
91	0xbc27de46	-0.010245865
92	0x3c68031b	0.014160897
93	0x3d15de13	0.03658874
94	0x3c14fffc	0.009094235
95	0xbd118812	-0.035530157
96	0x3b383647	0.0028108524
97	0x3ca7c6f5	0.020480612
98	0xbcc4a919	-0.024006413
99	0x3c5b54f0	0.01338695
100	0xbcbe8df1	-0.023261042
101	0xbc91b6e8	-0.017787412
102	0x3cd078e0	0.025448263
103	0x3c9767b8	0.018482074
104	0xbcf71b19	-0.030164288
105	0xbc8b36d9	-0.016993927
106	0x3cb29d62	0.021803562
107	0xbd05c9cb	-0.032663148
108	0x3d049e65	0.03237762
109	0x3c541e6c	0.012946706
110	0x3c6f1d1b	0.014594342
111	0xbcbff5ae	-0.023432579
112	0xbbf03c86	-0.0073314337
113	0x3cbaf77c	0.022823088
114	0x3c69fcc2	0.014281454
115	0xbc573568	-0.013135292
116	0xbcfafe6b	-0.030638894
117	0x3c94a00f	0.018142728
118	0x3d17a0e2	0.037018664
119	0xbd012922	-0.031533368
120	0xbcc4a058	-0.02400224
121	0xbcdef6df	-0.027217327
122	0xbd2e0c59	-0.042492244
123	0xb801fcfb	-3.0991603e-05
124	0xbbf7dec4	-0.0075643975
125	0x3bb90ebd	0.005647509
126	0xbcc2007d	-0.023681873
127	0xbc982e07	-0.018576635
128	0xbcfc5a46	-0.030804764
129	0x3c01707e	0.007900355
130	0x3c351e67	0.011054612
131	0x3d099095	0.03358515
132	0x3c50cda4	0.012744341
133	0x3bd61d84	0.0065342803
134	0xbd13ef54	-0.036116913
135	0x3c862940	0.016377091
136	0x3be5b3fa	0.0070099803
137	0xbc6f560b	-0.014607917
138	0xbc9abbad	-0.018888319
139	0x3c5b97da	0.013402903
140	0xbc925bfc	-0.017866127
141	0x3cd6a744	0.026202805
142	0x3c15d3d2	0.00914474
143	0xbc99bc32	-0.018766496
144	0xbd0c5ee2	-0.034270175
145	0xbd136d68	-0.03599301
146	0x3c1aff0d	0.009460223
147	0x3d0bd00a	0.03413395
148	0x3d13804f	0.036011036
149	0xbcc6b648	-0.02425684
150	0x3cdb4ebe	0.026770946
151	0x3cd4a66d	0.025958264
152	0x3d27fc46	0.04101207
153	0x3c799707	0.015233762
154	0x3bfb7c67	0.007674742
155	0x3c4feab8	0.012690239
156	0xbce43e9d	-0.027861888
157	0xbd22d05a	-0.03974948
158	0xbc03239c	-0.008004095
159	0x3b6f3db8	0.0036505293
160	0xbcf4ec08	-0.029897705
161	0xbd2f0d07	-0.042737033
162	0xbd64dbda	-0.05587373
163	0xbcf0e491	-0.029405864
164	0xbcb75a5c	-0.022381954
165	0xbcda28ab	-0.02663072
166	0xbc6d899c	-0.014498141
167	0xbd1736e5	-0.036917586
168	0x3b33d070	0.002743747
169	0x3c53f1da	0.01293608
170	0xbc8d5020	-0.01725012
171	0x3bddafe6	0.0067653535
172	0xbc307db0	-0.010772154
173	0xbd17e666	-0.03708496
174	0xbc6f5f7f	-0.01461017
175	0x3ccc8ce0	0.024969518
176	0x3bf5c2d0	0.00750003
177	0x3d4b8a21	0.049692277
178	0x3d371b63	0.044703852
179	0x3d19f4e5	0.037587065
180	0xbaf7c02f	-0.001890188
181	0xbc5c417f	-0.01344335
182	0x396f8028	0.00022840558
183	0xbc0fc157	-0.008774123
184	0x3bf9f4a3	0.00762804
185	0x3cdcf228	0.026970938
186	0xbd416cc3	-0.047222864
187	0xbc6a0247	-0.0142827695
188	0xbd5309da	-0.051523067
189	0x3c8114d6	0.015757006
190	0x3bc46744	0.0059937555
191	0x3c02b69d	0.007978109
192	0xbd2c2b69	-0.042033587
193	0x3a2dbb5a	0.0006627344
194	0xbc6c8d50	-0.014437988
195	0xbcd66430	-0.02617082
196	0xbd0e7b1d	-0.03478538
197	0xbca7a308	-0.020463482
198	0x3cfc73ff	0.03081703
199	0x3cd411f3	0.025887465
200	0xbd01cda9	-0.031690273
201	0x3c4cf726	0.012510097
202	0x3c767937	0.015043548
203	0x3c35ddcb	0.011100243
204	0x3d2ce57a	0.042211033
205	0x3d75b18a	0.059983768
206	0x3bd4487f	0.006478369
207	0x3c89a2c3	0.016801244
208	0x3d1b6635	0.03793927
209	0x3d2d105b	0.042251926
210	0x3d4a6ef8	0.049422234
211	0x3d25aadc	0.040446147
212	0x3d4ce66e	0.050024442
213	0x3bc8acb0	0.0061241016
214	0xbc2dc49a	-0.0106059555
215	0xbccce217	-0.025010152
216	0xbc802396	-0.015641969
217	0xbcedb5b0	-0.0290173
218	0xbd1cb953	-0.038262676
219	0xbcdde4c3	-0.027086621
220	0xbc786b12	-0.015162246
221	0xbcc62450	-0.024187237
222	0xbcd0766f	-0.025447099
223	0xbcfd3134	-0.030907251
224	0x3c497c64	0.012297723
225	0xbbfe424a	-0.007759367
226	0xbcfe5914	-0.031048335
227	0xbb894175	-0.0041887113
228	0x3cad16f7	0.021129115
229	0x3c177ace	0.0092455875
230	0x3beee81f	0.0072908546
231	0x3c8d3e59	0.017241644
232	0x3d56f738	0.05248186
233	0x3d482ae8	0.048869044
234	0x3d57ee27	0.052717354
235	0x3c8836f8	0.016627774
236	0x3c701b48	0.014654942
237	0xbc3f8a43	-0.011690679
238	0x3b154840	0.002277866
239	0x3b4dad4a	0.0031383806
240	0x3cb07cd6	0.021543901
241	0xbcc93f6a	-0.024566371
242	0x3c3fe17f	0.011711477
243	0xbd026511	-0.031834666
244	0xbcc7d151	-0.024391802
245	0xbccdef6a	-0.025138576
246	0xbbc3075d	-0.0059518055
247	0x3b258892	0.0025258404
248	0xbd4c296c	-0.04984419
249	0x3b2c7b55	0.0026318629
250	0xbc4c70c9	-0.012478062
251	0xbbcd2033	-0.006259942
252	0xbc85a077	-0.016311867
253	0x3c559903	0.013036969
254	0x3d07b355	0.03313001
255	0x3b53bb9a	0.0032307864

bias f4 [128]
0	0x3af003b4	0.001831165
1	0xbc1b617a	-0.009483689
2	0x3d210ce7	0.039318945
3	0xbc1f8272	-0.00973569
4	0xbca064ba	-0.01957928
5	0xbbc22920	-0.0059253126
6	0xbc2dfee8	-0.010619856
7	0x3b3380e3	0.0027390055
8	0xb813942d	-3.518553e-05
9	0xbca3bc58	-0.01998727
10	0x3d20c5da	0.039251186
11	0xbd05c6ea	-0.032660402
12	0x3b989f71	0.004657679
13	0x3ccb305f	0.024803339
14	0x3cebd4e6	0.028788041
15	0x3cc59de7	0.024123145
16	0xbca94f86	-0.020667803
17	0xbc871a23	-0.016491955
18	0xbd06661d	-0.032812227
19	0xbca73464	-0.020410724
20	0x3ce75e54	0.028243221
21	0x3d5368c0	0.05161357
22	0x3cb43daf	0.02200207
23	0x3d03c80e	0.03217321
24	0xbcac312c	-0.02101954
25	0xbb519845	-0.003198163
26	0x3b8cf210	0.004301317
27	0x3a9f3436	0.0012146297
28	0xbc57a37d	-0.013161537
29	0xbce2ab0e	-0.027669456
30	0xbc99991c	-0.018749766
31	0x3cd0e878	0.025501475
32	0x3a947bd7	0.0011328411
33	0x3d13f85e	0.036125533
34	0xbc5f4b2f	-0.013628765
35	0xbcbcfec2	-0.023070697
36	0x3d346b66	0.044047736
37	0x3d10bdae	0.035337143
38	0x3d0ed50c	0.034871146
39	0x3ca481a5	0.02008135
40	0xbc209b72	-0.009802686
41	0x3b6f4e30	0.003651511
42	0x3c8cecd2	0.017202768
43	0x3c83a1b2	0.016068313
44	0x3b4d64e7	0.003134066
45	0x3ccb8504	0.0248437
46	0xbbd12003	-0.00638199
47	0x3c872caf	0.016500799
48	0x3d11355b	0.035451274
49	0xbc498fee	-0.012302382
50	0x3c9b25bc	0.018938892
51	0xbca6af70	-0.020347327
52	0xbc583410	-0.013196006
53	0xbc7d98ad	-0.015478295
54	0x3d186f3f	0.037215468
55	0xbcc9c648	-0.02463068
56	0x3d1fd394	0.039020136
57	0x3cdec461	0.02719325
58	0xbb609c07	-0.0034272687
59	0xbc3be366	-0.01146779
60	0xbb304172	-0.0026894477
61	0x3c245b49	0.01003153
62	0xbc62df04	-0.013847116
63	0x3d347b29	0.044062767
64	0x3d08b9dc	0.033380374
65	0x3bc24f56	0.0059298677
66	0x3d0565da	0.032567836
67	0x39a895fa	0.00032155198
68	0x3c34a9f6	0.01102685
69	0x3d0285d4	0.03186591
70	0x3cb855fc	0.022501938
71	0x3cb8c51a	0.022554923
72	0x3a9c55a0	0.0011927374
73	0xbc4c54f4	-0.012471426
74	0x3c343b34	0.011000443
75	0x3d2d7e50	0.04235679
76	0xbd05b777	-0.03264567
77	0xba0913b1	-0.00052290695
78	0x3ce4942c	0.027902685
79	0x3d120584	0.03564979
80	0xbc522f9b	-0.012828733
81	0x3c8cf2c7	0.017205609
82	0xbc68381e	-0.014173536
83	0x3d09e47a	0.033665158
84	0x3d16cd76	0.036817037
85	0x3c251141	0.010074914
86	0x3d546d5b	0.051862102
87	0x3d6491d9	0.055803154
88	0xbb239525	-0.0024960723
89	0x3c3f0300	0.01165843
90	0x3c52f174	0.01287495
91	0x3c53b4df	0.012921541
92	0x3d02778d	0.031852294
93	0x3cb2a426	0.021806788
94	0xbc0ae97e	-0.00847852
95	0x3c9ed415	0.019388238
96	0xbccc7d7b	-0.024962178
97	0x3cf60b3c	0.030034654
98	0x3ca34ce3	0.019934123
99	0xbbb4ecd0	-0.0055213943
100	0x3b07068e	0.0020603272
101	0x3b80d5d4	0.0039317403
102	0x3b0274f9	0.0019906147
103	0xbc48a12b	-0.012245457
104	0xbb2cd8ac	-0.0026374264
105	0x3ce755fa	0.028239239
106	0x3bbb4cfe	0.0057159653
107	0xbcdd562f	-0.027018635
108	0x3a69e1b3	0.00089218764
109	0x3bb167ea	0.005413999
110	0x3cba5b02	0.022748474
111	0x3d2abfa0	0.041686654
112	0x3d1eb5a7	0.038747456
113	0xbd19627b	-0.037447434
114	0x3becb731	0.0072239866
115	0xbc91f0fc	-0.017815106
116	0x3c697280	0.01424849
117	0x3d0260ce	0.0318306
118	0x3ba836f9	0.0051335064
119	0x3ac72abf	0.0015195234
120	0x3c145613	0.009053725
121	0x3c2b8fe3	0.010471317
122	0x3d1e9b71	0.03872246
123	0xbc204fa2	-0.009784611
124	0xbcc1db12	-0.023664031
125	0x3b70ae9c	0.003672517
126	0x3b9d01a8	0.004791457
127	0xbbbcd736	-0.00576296

weight f4 [64, 128]
0	0xbc2c980e	-0.0105343
1	0xbd209e1d	-0.03921329
2	0xbdb95e4c	-0.09051189
3	0xbd687678	-0.056753606
4	0x3d7efdf9	0.062253926
5	0xbd199aa6	-0.037501
6	0x3d3bb3fa	0.045825936
7	0x3d49a302	0.049227722
8	0xbdc25fcc	-0.09490928
9	0xbd793766	-0.060843848
10	0x3d3b2d55	0.04569753
11	0xbd996a97	-0.074910335
12	0xbd717db1	-0.05895776
13	0xbcc8f45f	-0.024530588
14	0xbd9f365f	-0.07774042
15	0xbd30a7e2	-0.043128856
16	0xbdbf2b28	-0.09334403
17	0xbe0d1b17	-0.13779865
18	0x3dec8691	0.11549104
19	0xbd727715	-0.059195597
20	0x3cd9f8fd	0.026607985
21	0xbcb13c77	-0.021635277
22	0xbc107a06	-0.008818155
23	0xbd1fb55d	-0.03899132
24	0xbda844fd	-0.082162835
25	0x3d22c2c1	0.039736513
26	0xbd17cc6e	-0.037060194
27	0xbd7ef09b	-0.062241178
28	0x3d3cd6ba	0.046103217
29	0xbd46dbe5	-0.04854955
30	0xbdceea1e	-0.10103248
31	0x3d475fa9	0.048675213
32	0x3bc867ac	0.0061158743
33	0x3c974e18	0.018469855
34	0xbda5e427	-0.08100157
35	0x3dabb819	0.08384723
36	0x3dc9f7a8	0.0986169
37	0x3d08abbf	0.033366915
38	0xbc399dea	-0.011329154
39	0x3de0a206	0.109684035
40	0xbd3fbb5b	-0.046809535
41	0xbd2c190d	-0.042016078
42	0x3d6c8320	0.057742238
43	0xbdc426d8	-0.09577721
44	0xbd6c4cec	-0.057690546
45	0x3d98ccdc	0.07460949
46	0xbd2771bb	-0.040879946
47	0x3d8e99f0	0.06962955
48	0xbd266223	-0.040620934
49	0xbba000b5	-0.004882897
50	0xbce5f14d	-0.028069163
51	0x3c934f88	0.01798226
52	0x3d4c90d8	0.04994282
53	0x3dc30a4c	0.09523448
54	0xbdb2af88	-0.08724886
55	0xbdc1e195	-0.094668545
56	0x3d6aa577	0.057286706
57	0xbcd81db9	-0.02638136
58	0x3dab38f5	0.08360473
59	0x3d41911c	0.047257528
60	0x3d4302b9	0.04761002
61	0x3bfd4fb5	0.007730449
62	0xbd80788c	-0.062729925
63	0x3dcd38dd	0.100206114
64	0xbba61148	-0.005067978
65	0x3d522e1f	0.051313516
66	0xbc1f3138	-0.0097163245
67	0xbc610994	-0.013735194
68	0x3cb13492	0.021631513
69	0xbb4b32b5	-0.0031005566
70	0x3dac3c38	0.08409923
71	0xb928ebce	-0.00016109573
72	0x3dbf313d	0.09335563
73	0xbcf41168	-0.029793456
74	0x3b9b683b	0.00474265
75	0x3ba0880e	0.0048990315
76	0x3dcf1fbe	0.10113476
77	0x3df38202	0.118900314
78	0x3dc253f7	0.09488671
79	0x3d6c54ab	0.057697933
80	0xbcea64e6	-0.028612565
81	0xbd927577	-0.07151311
82	0x3dc9d59d	0.098551966
83	0xbd8f87d4	-0.07008329
84	0xbd654fac	-0.055984184
85	0xbd5c3e50	-0.053770363
86	0x3d9961fd	0.07489393
87	0x3d8aaec2	0.06771614
88	0xbc8d5f47	-0.017257346
89	0xbc45f014	-0.012081165
90	0xbda910b2	-0.082551375
91	0xbdc7fbcc	-0.09764823
92	0xbd1939ee	-0.03740876
93	0xbd57b45e	-0.052662246
94	0x3cc7f2dc	0.024407797
95	0xbd8d04b1	-0.068856604
96	0xbda1f72a	-0.07908471
97	0xbd62baf8	-0.05535409
98	0xbd858afe	-0.06520651
99	0xbcf65459	-0.030069517
100	0x3dd284ac	0.102792114
101	0x3bd08a6d	0.006364158
102	0x3dd754dc	0.105142325
103	0x3cc9b256	0.02462117
104	0x3dd46e06	0.10372548
105	0x3ca0a51e	0.019609984
106	0x3cd81279	0.026375996
107	0xbd71c1c0	-0.059022665
108	0x3dcf93ae	0.101355895
109	0xbac18783	-0.0014765117
110	0xbd333959	-0.043755863
111	0x3dbb4118	0.09143275
112	0xbdc2e705	-0.0951672
113	0x3e0d8bcd	0.13822861
114	0x3d7201a0	0.05908358
115	0xbdb38296	-0.08765142
116	0xbd4d2951	-0.05008823
117	0xbc770655	-0.015077193
118	0x3cbf326b	0.02333947
119	0xbd157b58	-0.036494583
120	0x3d93c53d	0.072153546
121	0x3d06bd21	0.03289521
122	0xbc358d83	-0.011081102
123	0x3d17f424	0.037098065
124	0x3cecdcd6	0.028913897
125	0xbda5f7e8	-0.08103925
126	0xbcba0d6b	-0.022711476
127	0xbb52412b	-0.00320823
128	0xbd6ee930	-0.058327854
129	0xbd97399a	-0.073840335
130	0xbdb9e3b9	-0.09076638
131	0xbd4adf49	-0.049529348
132	0x3caf3a6b	0.02139016
133	0x3dd5f80d	0.104477026
134	0xbc986636	-0.018603425
135	0xbd70aee5	-0.058760542
136	0xbc26cf1e	-0.0101812165
137	0xbd58485e	-0.05280339
138	0xbdd5a760	-0.10432315
139	0x3dd15ed7	0.102231674
140	0x3d17993f	0.03701138
141	0x3dfb803b	0.122803174
142	0x3d7a9298	0.06117496
143	0x3dc61aaf	0.09673058
144	0x3dbda209	0.092594214
145	0x3e051e80	0.12999916
146	0x3da7e8d0	0.08198702
147	0xbdaa1b35	-0.083059706
148	0x3d29454b	0.04132585
149	0xbd2766f0	-0.040869653
150	0x3d68f86f	0.05687755
151	0xbd8d6cf6	-0.06905548
152	0xbd889a95	-0.06670109
153	0x3d4b0d92	0.04957349
154	0xbdf62e10	-0.120205045
155	0x3da0c0ff	0.07849311
156	0x3b8ccc3f	0.004296809
157	0x3d71b189	0.0590072
158	0x3e0ff68b	0.14058892
159	0x3d6da761	0.058020953
160	0xbd12a708	-0.035803825
161	0x3daa8753	0.08326592
162	0x3dbcd526	0.09220342
163	0xbd8223ee	-0.06354509
164	0x3b34185f	0.0027480347
165	0x3d12b909	0.035820995
166	0x3d97fc5c	0.074211806
167	0xbd453b7f	-0.048152443
168	0xbda594bd	-0.0808501
169	0xbd84bd4a	-0.064814165
170	0x3d364b1b	0.04450522
171	0x3d97a898	0.074052036
172	0x3d451b66	0.048121832
173	0xbd93335a	-0.07187529
174	0xbd05fe67	-0.03271332
175	0x3d801473	0.062539004
176	0x3d528316	0.051394545
177	0x3d1e1aaf	0.038599666
178	0xbd8d9085	-0.069123305
179	0x3dac0a47	0.08400398
180	0xbc951259	-0.018197225
181	0xbdbb9a1e	-0.09160255
182	0x3d34d313	0.04414661
183	0xbaa8ffd8	-0.001289363
184	0xbcfd7b84	-0.030942686
185	0xbade04b8	-0.0016938662
186	0x3d461e98	0.04836902
187	0x3dc16a70	0.094441295
188	0xbdab2fca	-0.083587244
189	0x3d962343	0.073309444
190	0x3c5d40d2	0.013504224
191	0x3d0634d2	0.032765217
192	0x3c8bca68	0.017064288
193	0x3d8f4f6c	0.069975704
194	0x3dc841b3	0.09778156
195	0xbd889f8d	-0.06671057
196	0x3d621078	0.055191487
197	0x3cd3cc77	0.025854332
198	0xbc48cc5b	-0.012255753
199	0xbd9cda0b	-0.07658776
200	0x3d9a2a05	0.07527546
201	0x3dbc16ba	0.09184022
202	0xbdd7e865	-0.105423726
203	0x3d154e83	0.036451828
204	0x3de85651	0.113445885
205	0xbdba7219	-0.09103794
206	0x3da33503	0.079690956
207	0x3c814ad6	0.015782755
208	0x3dae5c9a	0.08513756
209	0x3d4c8380	0.049930096
210	0xbd0da715	-0.03458317
211	0xbce83fd9	-0.028350757
212	0x3c2cf2a9	0.010555902
213	0x3d829ca1	0.06377531
214	0x3d808220	0.062748194
215	0xbb57a7ff	-0.003290653
216	0xbb683406	-0.00354314
217	0x3dcaea0d	0.09907923
218	0x3e001a40	0.12510014
219	0x3e0378bb	0.12839024
220	0x3dd92cf4	0.10604277
221	0xbc8c9eb8	-0.017165527
222	0xbdbed1fd	-0.09317396
223	0x3c63ecbe	0.013911424
224	0xbd6740e8	-0.056458384
225	0x3dfdbc11	0.123893864
226	0x3ddd78c5	0.108140506
227	0x3d0a637f	0.033786293
228	0x3d48506f	0.048904832
229	0x3db9ca6c	0.09071812
230	0xbd822373	-0.06354418
231	0xbd011dfc	-0.031522736
232	0xbdb0c6b2	-0.08631648
233	0x3c234972	0.009966241
234	0xbd167989	-0.036737
235	0xbd0324d6	-0.03201755
236	0x3c867197	0.016411586
237	0x3d8d3451	0.06894744
238	0xbc0f820d	-0.008759034
239	0xbb5541f0	-0.0032540523
240	0x3cf2b5d1	0.029627712
241	0x3d4feef0	0.050764978
242	0x3d6cee06	0.057844184
243	0x3d82b976	0.0638303
244	0x3c50b48a	0.012738356
245	0xbb5f1223	-0.003403791
246	0x3dce8653	0.10084214
247	0xbd49b563	-0.04924525
248	0xbd3618b9	-0.04445717
249	0x3dc7e762	0.0976093
250	0xbd4e2014	-0.05032356
251	0xbd1c4368	-0.03815022
252	0xbd95b1c3	-0.07309296
253	0xbd662790	-0.056190073
254	0x3cb69e80	0.022292376
255	0x3da699fb	0.08134838

bias f4 [64]
0	0x3cb5a52c	0.022173487
1	0xbd08a1c6	-0.033357404
2	0xbd214d6a	-0.03938047
3	0x3d3d087a	0.046150662
4	0x3d36cf78	0.04463145
5	0x3addcf44	0.0016922732
6	0xbd751b35	-0.0598404
7	0xbcfb9741	-0.030711772
8	0x3d8f274a	0.06989916
9	0x3cd65661	0.026164236
10	0xbd3f80b3	-0.046753597
11	0x3caa4340	0.02078402
12	0x3cd1ed53	0.02562586
13	0x3da57178	0.08078283
14	0x3d18f059	0.03733859
15	0x3d75038b	0.059817832
16	0x3c05faaf	0.008177443
17	0x3daae8f3	0.08345213
18	0x3c0233f1	0.007946954
19	0x3b88593c	0.004161028
20	0xbd8e11f0	-0.06937015
21	0x3cf0ef1c	0.029410891
22	0xbb2e2e73	-0.002657798
23	0xbd82bad8	-0.06383294
24	0xbd83ae49	-0.06429727
25	0xbd01c9d4	-0.03168662
26	0x3c33faf1	0.010985122
27	0xbd5b1e7c	-0.05349587
28	0x3dbad9d4	0.09123579
29	0xbcdc9aaa	-0.026929218
30	0x3d8458b5	0.06462232
31	0x3d6723c2	0.056430586
32	0xbd870fed	-0.065948345
33	0x3ced33d4	0.028955378
34	0x3c80c066	0.015716743
35	0x3d84a0bc	0.0647597
36	0x3c459359	0.012059056
37	0x3dbe57c8	0.09294087
38	0x3d3f8b80	0.046763897
39	0xbcced554	-0.025248207
40	0x3d89a6c2	0.0672126
41	0x3db2a434	0.087227255
42	0xbd120eab	-0.03565852
43	0x3c4350dc	0.011921134
44	0xbd9a4db2	-0.075343505
45	0xbd9a5454	-0.075356156
46	0xbd24f479	-0.04027221
47	0x3d05eb9a	0.03269539
48	0xbdad534d	-0.08463154
49	0x3d97c213	0.074100636
50	0xbcfbe1f5	-0.030747393
51	0x3c5883a8	0.013214983
52	0xbcc38ece	-0.023871806
53	0xbb37bd2a	-0.0028036335
54	0xbba87512	-0.005140909
55	0xbb277841	-0.0025553855
56	0x3da968fa	0.08271976
57	0x3cc2b9fa	0.023770321
58	0xbc82c162	-0.015961353
59	0x3d46626d	0.04843371
60	0x3dadb5b1	0.084819205
61	0x3d75b7d7	0.059989776
62	0x3d8c7f62	0.06860234
63	0xbc0eb6d5	-0.008710583

weight f4 [10, 64]
0	0x3cf463f2	0.029832814
1	0x3deb8084	0.11499122
2	0xbd689bb2	-0.056789108
3	0xbdc80dac	-0.09768233
4	0x3d95463e	0.07288788
5	0xb882e992	-6.242389e-05
6	0x3b75183e	0.0037398483
7	0x3df43e46	0.1192594
8	0xbd696c15	-0.05698784
9	0xbddd8b03	-0.1081753
10	0x3dba057c	0.09083077
11	0x3e051cf3	0.12999325
12	0x3d3aea3b	0.045633536
13	0xbcc6e0bd	-0.024277085
14	0xbdc7a75a	-0.09748717
15	0x3d20d02b	0.039261024
16	0x3da2a631	0.07941855
17	0x3d9e5bf2	0.07732381
18	0x3d6a5b1d	0.0572158
19	0x3de14fd8	0.11001557
20	0xbd70078e	-0.058600955
21	0x3df4181f	0.11918663
22	0x3d8fa8a8	0.070145905
23	0xbe47c54c	-0.19508857
24	0xbda83f7a	-0.08215232
25	0x3e030b43	0.12797265
26	0xbd9447b5	-0.072402395
27	0xbdcb3dac	-0.09923872
28	0x3ce766ed	0.028247321
29	0xbdbd488d	-0.092423536
30	0xbe3dd68d	-0.18538876
31	0x3e22b40b	0.15888993
32	0x3d87a0f2	0.06622495
33	0x3e0181d8	0.12647188
34	0xbe246c0c	-0.16056842
35	0x3d815b14	0.063162
36	0xbe329e63	-0.17443232
37	0xbd86fde8	-0.065913975
38	0xbddb036f	-0.10694014
39	0x3ded54f9	0.11588473
40	0xbe1592b3	-0.14606743
41	0xbdfbcc09	-0.12294776
42	0xbdac0428	-0.0839923
43	0xbdc9c403	-0.098518394
44	0xbe0b67ef	-0.13613866
45	0x3def1971	0.116747744
46	0xbd93daa0	-0.07219434
47	0x3d012139	0.031525824
48	0x3c04d537	0.008107475
49	0xbda8021f	-0.082035296
50	0x3dd9612c	0.10614237
51	0x3dc0d5ac	0.09415755
52	0x3d7e46e9	0.062079344
53	0x3e1979c7	0.1498786
54	0x3dfe16e4	0.1240671
55	0xbde7ff27	-0.11327963
56	0x3d151d2d	0.036404777
57	0x3c85ff32	0.016357038
58	0x3daf1568	0.08549005
59	0xbe2fd2dc	-0.1717028
60	0xbcff5ccb	-0.031172177
61	0xbcadf470	-0.021234721
62	0x3dd1fbba	0.10253091
63	0xbbef1f6a	-0.007297446
64	0x3e089639	0.13338555
65	0x3d89b4c6	0.06723933
66	0xbd6517b2	-0.0559308
67	0x3dd25a63	0.10271146
68	0xbd090a85	-0.033457298
69	0xbd9a881d	-0.07545493
70	0xbdf3a099	-0.11895866
71	0xbdedd0bb	-0.11612078
72	0xbe48368b	-0.19552056
73	0x3e12dd71	0.14342286
74	0x3d667d1d	0.05627166
75	0x3e0b0561	0.1357627
76	0x3df9f65f	0.12205195
77	0xbe1b484b	-0.15164296
78	0x3d1b9a80	0.03798914
79	0x3de91b73	0.11382189
80	0xbd4c64cd	-0.04990082
81	0xbe3e2dcd	-0.18572159
82	0xbd8869f1	-0.06660832
83	0x3ba6d14e	0.005090869
84	0xbd6b8b66	-0.057505988
85	0x3d6fb90f	0.058526095
86	0xbd335278	-0.04377982
87	0x3e12e89d	0.14346547
88	0xbe192996	-0.1495727
89	0xbe369470	-0.17830062
90	0xbd8f0b60	-0.069845915
91	0xbda0e68e	-0.07856475
92	0x3b9c58a6	0.00477131
93	0x3e08890e	0.13333532
94	0x3db8fc8a	0.09032543
95	0x3b85dd35	0.004085208
96	0x3dea28ed	0.11433587
97	0x3de6f826	0.11277799
98	0x3d9606e8	0.07325536
99	0xbd80edf1	-0.06295384
100	0xbe1f88e3	-0.15579562
101	0x3de683ef	0.11255633
102	0xbccc83c8	-0.024965182
103	0x3d562ee0	0.052290797
104	0x3d905ac3	0.070485614
105	0x3daf426b	0.0855759
106	0xbcc28888	-0.023746744
107	0x3dde0bc4	0.10842088
108	0xbe0d5436	-0.13801655
109	0xbdce532f	-0.1007446
110	0xbe2dda54	-0.16977817
111	0x3bcc51ae	0.006235323
112	0x3e2b5294	0.1673072
113	0x3d1e21c7	0.03860643
114	0xbd06eaca	-0.032938756
115	0x3e033f2c	0.12817067
116	0xbe425e04	-0.18981177
117	0x3d9c6f7b	0.07638451
118	0xbe01ab49	-0.12662996
119	0xbdabc8f2	-0.08387937
120	0x3e0db53a	0.13838664
121	0xbd802e03	-0.06258776
122	0xbe3ce3e4	-0.18446308
123	0x3da6201f	0.08111595
124	0x3e1062ea	0.14100233
125	0xbd7f0542	-0.062260874
126	0x3d5bcdb9	0.05366299
127	0x3da0a9fb	0.07844921
128	0x3dbc8c8f	0.09206497
129	0x3e1a8d7f	0.15093039
130	0x3e1568ca	0.14590755
131	0x3caf2f93	0.02138499
132	0x3e1ed481	0.15510751
133	0xbe02fd06	-0.12791833
134	0xbdeab08e	-0.114594564
135	0xbd984b1b	-0.074362
136	0x3d8d85ca	0.06910284
137	0x3d956a59	0.07295675
138	0x3db87b0b	0.090078436
139	0x3d045bd0	0.03231412
140	0x3d064d17	0.032788362
141	0xbd92f28a	-0.07175167
142	0x3e1356d8	0.14388597
143	0xbda1cff9	-0.07900996
144	0xbdf7f086	-0.12106423
145	0x3e18a43a	0.14906397
146	0x3d58eeaf	0.052962
147	0xbe276f5d	-0.16351075
148	0x3e250c5c	0.16117996
149	0xbda8f9cd	-0.08250771
150	0x39d015a2	0.0003968897
151	0x3e05d283	0.13068585
152	0x3d0c83be	0.034305327
153	0xbbfbb75d	-0.0076817707
154	0xbd9d828f	-0.07690918
155	0x3dc0fb85	0.094229735
156	0x3daf9bd6	0.08574645
157	0xbdf934e4	-0.12168291
158	0x3c72f756	0.014829477
159	0x3dff4a7f	0.12465381
160	0x3dcde763	0.10053899
161	0x3d938753	0.072035454
162	0x3def6cb8	0.11690658
163	0x3b3fade8	0.0029247943
164	0x3e13d6e8	0.14437449
165	0x3da3f07b	0.080048524
166	0x3e20bb65	0.15696485
167	0x3d30afc1	0.043136362
168	0xbe477c40	-0.19480991
169	0xbcced3ba	-0.025247443
170	0xbe2a06ee	-0.16604206
171	0x3b79d204	0.0038119564
172	0xbbe1d360	-0.006891653
173	0x3cefa8e4	0.029255338
174	0x3d0828e7	0.033242133
175	0xbe2b83da	-0.16749516
176	0x3cd806c5	0.026370415
177	0x3c7d30eb	0.0154535575
178	0x3d9f1903	0.077684425
179	0xbd9c8694	-0.07642856
180	0xbc91d5ef	-0.017802207
181	0xbe06be31	-0.1315849
182	0xbd779c34	-0.0604517
183	0x3c8462e3	0.016160434
184	0x3c98c28e	0.018647458
185	0x3b3dbe21	0.0028952437
186	0xbd800415	-0.062507786
187	0xbe24e464	-0.16102749
188	0x3ca2c5bf	0.019869683
189	0xbcfe1afa	-0.031018723
190	0xbe0417bd	-0.1289968
191	0xbe1ceb87	-0.15324222
192	0x3d170f1c	0.036879644
193	0x3dd82adb	0.10555049
194	0x3dc027c4	0.09382585
195	0x3da04ffa	0.07827754
196	0x3d9cfa75	0.076649584
197	0x3d3801cc	0.04492359
198	0x3d1caaff	0.038249012
199	0x3be513e1	0.006990895
200	0xbe22a104	-0.15881735
201	0x3c3f8948	0.011690445
202	0xbdda22eb	-0.10651191
203	0x3d515c33	0.05111332
204	0xbded2703	-0.115797065
205	0x3c9c99a4	0.01911623
206	0x3ddfb498	0.109231174
207	0x3d0bd012	0.03413398
208	0xbe34048f	-0.17579864
209	0x3d433756	0.047660194
210	0xbe0d2ae6	-0.13785896
211	0xbd7748d5	-0.060372192
212	0x3dbb11bc	0.09134242
213	0x3cdad43b	0.026712527
214	0xbd87ce78	-0.06631178
215	0xbe099549	-0.13435854
216	0x3d853a02	0.06505205
217	0x3da2ed34	0.07955399
218	0x3df61971	0.12016571
219	0x3d6f7c01	0.05846787
220	0xbdabe9b8	-0.08394188
221	0xbd051877	-0.032494035
222	0xbdfd1194	-0.123568684
223	0xbde9a9fe	-0.114093766
224	0x3ce27134	0.02764187
225	0xbd97127f	-0.07376575
226	0xbe3545d4	-0.17702419
227	0xbe25d20b	-0.16193406
228	0x3d054beb	0.032543104
229	0x3df62ee6	0.12020664
230	0xbdf0601c	-0.117370814
231	0x3ce8817a	0.028382052
232	0x3dcd70db	0.10031291
233	0x3df0d2aa	0.11758931
234	0x3dffa0a3	0.12481811
235	0xbe0ec381	-0.13941766
236	0x3cf576ef	0.029963939
237	0x3dd34912	0.103166714
238	0xbd068e09	-0.0328503
239	0x3d588ed7	0.052870598
240	0x3d8600a5	0.06543092
241	0xbda8fbff	-0.082511894
242	0xbd9139c3	-0.07091095
243	0x3da8532d	0.082189895
244	0xbe142aa4	-0.14469391
245	0xbe1f33c9	-0.15547098
246	0xbe362b76	-0.17790017
247	0x3dd6fa32	0.1049694
248	0xbd8e34fb	-0.06943699
249	0x3c868433	0.01642046
250	0xbdb9e3ee	-0.09076677
251	0x3ddbe757	0.10737484
252	0xbe21abfb	-0.15788262
253	0xbd7ed639	-0.062216017
254	0x3d2111f1	0.03932375
255	0x3e0f3288	0.1398412

bias f4 [10]
0	0xbd1f69d9	-0.038919304
1	0x3c1943ae	0.009354515
2	0xbbcd8e0a	-0.006273036
3	0x3a956a84	0.0011399542
4	0x3d86a93d	0.065752484
5	0x3def70dd	0.11691449
6	0x3c811f64	0.015762039
7	0x3dba2af0	0.09090221
8	0x3e0a7ad9	0.13523425
9	0xbdcd9031	-0.10037268
